saved_models/actor_checkpoint.pth (torch, 170719 bytes, 6 tensors)

fc1.weight f4 [256, 33]
00000000: 7cd6 88bf c149 12bf ac9a 5abf 3ac8 eb3d
00000010: aa52 aebe 0be0 5ebf 6207 9cbf be95 e63e
00000020: 829e 1b3f 5b50 04c0 970b fa3e 9a2e a13e
00000030: 3e36 97be f793 a43f 7554 bb3f 8483 893e
00000040: 95c3 923d 5b13 143e 3338 283f 448e 973f
00000050: 9e76 96be 3f11 bcbd b3f3 d3be ff1c 653e
00000060: a2e7 d5bc 0a2c 233f a5ff bd3e f67f da3f
00000070: 419e 153f f074 65bd 0be2 d5bf 8025 77bd
00000080: 1083 73c0 ad66 363e acf7 ab3f 7d77 333e
00000090: 28c8 9ec0 d089 91c0 bff7 92bf a4e2 20c0
000000a0: 31a9 3dbd e1e7 c6bf cdd6 39be 74f4 7bbe
000000b0: 73a9 b63e 8239 07be 22df 393f edf6 adbe
000000c0: 7a78 f93e 2ffb 4d40 d895 be3f 4893 0cc0
000000d0: 4e71 b53f e98b 0d3e fe0b 9d3c ba10 38bf
000000e0: dfe0 ac3e 4d7a 843e a085 a1bc 5db2 5e3e
000000f0: 7551 db3f 619b ab3e fe7a 51bd 2508 d4bf
00000100: 3a38 423d a3d1 6b3f 6304 05bf fa2f 3abe
00000110: 2f50 853f ab2e 06bf 1170 623f 752b 76c0
00000120: ab06 253e 2ab3 62be 65ff 7d3d f59d 52bf
00000130: bb64 073e e47d 353e 9efd 13be 1b72 29bf
00000140: 3cc3 453e e9de 11bf 6565 28be ed80 efbf
00000150: 4d6c b23d c4c2 b33f efb7 3abf 5001 45be
00000160: 9389 f13d cf9e c3be 9aa6 57be c2de ccbd
00000170: 0827 803e 2695 c93f b4ca 30bf b426 15bd
00000180: bfd6 cdbf 8c32 36bd e8a9 e13f 6993 64bf
00000190: 09a9 6abe 08c3 8c3e 5b70 1ec0 a2a9 c7bf
000001a0: 955c b03e 1825 e1bf 916e bdbe 3a40 c83d
000001b0: 7118 4cbf fb5a 41bf d815 e2be c4e9 1a3f
000001c0: 8459 ddbe 71ff 5a3f b58f a13e ea09 eebe
000001d0: 837b 043f e1fb efbe 1b41 943e 4ad0 18be
000001e0: fe5a 13bf 8925 c1be ef30 ca3e cd67 9cbc
000001f0: 3cf1 373f 5364 903f d05f b33f 8d76 0ebf
00000200: 009c bebb c5ce b3bf 38e6 d0bc 8e8b 05c0
00000210: 6637 023f 6a90 6c3f bc06 7fbf 8ea6 f93e
00000220: 0d68 113e ef7b 2d3f c76e 04bf c19d 36bf
00000230: 2844 aebe 2f72 b13e 9246 d13d 47fd 523f
00000240: eb99 9fbf 03a8 423f 776c 733e 0e70 bb3f
00000250: d047 cb3d 4de5 a7bf 706f 473e 4a4b 9bbe
00000260: 84a1 01bf 79aa 9b3d fb88 4f3f 34aa 2c3f
00000270: a3a6 ddba cb80 223e 8039 3e3e aaa8 1840
00000280: 9fa9 32bf ca89 603d dcc5 1ac0 c8d5 7c3c
00000290: d987 863f 6503 a33e 6d57 2f3e f388 74bf
000002a0: bfe7 febf 72fc 603f 28c9 2bbf c87f c5bf
000002b0: c83b 9abf 27fe 5d3e 3426 3b3f 1f7a 5cbe
000002c0: e433 393e 7894 b0bd 1210 023d 1a5c d23e
000002d0: b173 ce3f 0a5e 773e 401d d6be 392c f8bd
000002e0: 2b1a 92bf 0c6f 14be b524 0b3e c909 fcbe
000002f0: ccac 913d 0b12 6c3e 3742 4cbf 11c5 0abf
00000300: 23ef fc3f 8fd3 0fbf 5265 05bd 375d fdbf
00000310: 145a 163d ed12 3940 fb30 1d3e a594 e93f
00000320: 496e d13f 040f 44c0 e65a 00c0 b2f6 413f
00000330: 8343 e3bf 4299 8abe 585d b1bf fafa 293f
00000340: 9056 c3be b18a 2ebe 7dfd b53c 511a 06bd
00000350: d44c a03f b92d 303f cfe8 9cbf 6881 49bf
00000360: b8df 403f e418 a1bf 6a24 513f 427a 07bf
00000370: 2d93 a73f 1c2c a83e 6789 b93e 294f c8be
00000380: beb1 debc b085 2940 ea06 63bf e063 f1bc
00000390: 4961 29c0 505f 48bd e387 be3f 339e 8abe
000003a0: b7a0 f4be 93f3 18be 8100 843e a9f3 9d3f
000003b0: 1558 d93e 5b91 fbbe 7f42 6fbf 49ff 2ebf
000003c0: 8712 fabe da4b db3e b72f 933e 4422 28bf
000003d0: 42dd a23f 440e 843f d80e 74bf d7c9 bc3f
000003e0: 783e 603f 74d1 a63e 22b6 45be 664e 8fbd
000003f0: c2e8 9c3e 0573 babd 769b da3e 46bb 50be
-1.0690455 -0.5714379 -0.8539226 0.115127996 -0.34047443 -0.8706061 -1.2189753 0.4503612
0.6078874 -2.0674045 0.48836967 0.31480867 -0.2953357 1.2857655 1.4635149 0.2685815
0.071662106 0.14460509 0.65710753 1.1840291 -0.29387373 -0.09182977 -0.41396865 0.22374342
-0.026111428 0.63739073 0.37109104 1.70703 0.584446 -0.056019723 -1.6709608 -0.060338497
-3.8048744 0.17812605 1.3434958 0.1752605 -4.961933 -4.548073 -1.1481856 -2.513833
-0.04630393 -1.5539514 -0.18148346 -0.2460497 0.35676154 -0.13205531 0.726061 -0.33977452
0.4872473 3.218456 1.4889479 -2.1964893 1.4175203 0.13822903 0.019170757 -0.7190052
0.33765313 0.25874558 -0.019717038 0.21747728 1.7134234 0.33516982 -0.051142685 -1.6564986
0.047416903 0.92116755 -0.5195982 -0.18182364 1.0415095 -0.5241496 0.8845225 -3.8464024
0.16115825 -0.22138658 0.06201114 -0.82272273 0.1322202 0.17723805 -0.14452216 -0.66189736
0.19312757 -0.5698076 -0.16444929 -1.871122 0.08712063 1.4043813 -0.7293691 -0.19238782
0.11793818 -0.382071 -0.21059647 -0.10003425 0.25029778 1.5748641 -0.690593 -0.036413863
-1.608116 -0.0444818 1.7629976 -0.8928743 -0.22916044 0.27492547 -2.4756076 -1.5598643
0.34445634 -1.7589445 -0.36998418 0.09777875 -0.79724795 -0.7552945 -0.4415729 0.6051295
-0.43232358 0.8554602 0.31554952 -0.4649194 0.51750964 -0.46871856 0.28955922 -0.14923206
-0.5756072 -0.3772395 0.39490458 -0.019092465 0.7185247 1.1280617 1.4013615 -0.55649644
-0.0058169365 -1.4047476 -0.025500402 -2.0866427 0.5086578 0.9240786 -0.9961965 0.48759884
0.14199848 0.6776723 -0.5173153 -0.71334463 -0.34036374 0.34657428 0.10218538 0.8241772
-1.2468847 0.76037616 0.23771845 1.4643571 0.099258065 -1.3116852 0.19476104 -0.30330878
-0.5063708 0.076008745 0.8106839 0.6744721 -0.0016910624 0.15869443 0.18576622 2.3852944
-0.6979007 0.054818906 -2.4183264 0.015431829 1.0510207 0.31838527 0.17123194 -0.9552147
-1.9914473 0.878852 -0.67103815 -1.5429621 -1.2049494 0.21678983 0.7310517 -0.2153096
0.18086201 -0.08622068 0.031753607 0.41085893 1.6129056 0.24156967 -0.4181919 -0.1211781
-1.1414236 -0.14495486 0.13588221 -0.49226215 0.071130365 0.23053758 -0.79788536 -0.5420695
1.9760479 -0.5618219 -0.03256733 -1.9794072 0.036707 2.8917801 0.15350716 1.8248488
1.6361781 -3.0634165 -2.005548 0.7576705 -1.7754978 -0.2707005 -1.3856611 0.66398585
-0.3815198 -0.17045094 0.0222156 -0.03273994 1.2523446 0.6881977 -1.2258548 -0.78713083
0.7534137 -1.2585721 0.8169619 -0.52920926 1.309179 0.32846153 0.36237642 -0.39122894
-0.027184363 2.6487846 -0.88682425 -0.02946657 -2.6465628 -0.048919022 1.4885219 -0.2707382
-0.47778866 -0.14936666 0.25781634 1.2339984 0.42450014 -0.49134335 -0.9346084 -0.68358284
-0.4884226 0.42831308 0.2874734 -0.65677285 1.2723773 1.0316854 -0.9533515 1.4749097
0.8759532 0.32581675 -0.1930776 -0.06997375 0.3064633 -0.091039695 0.42696732 -0.20383939

fc1.bias f4 [256]
00000000: 008b c7bf 11ff ddbf e62e d2bf cd55 c0bf
00000010: b963 1cc0 aaad f3bf e6c1 30c0 9023 09c0
00000020: 55a2 54bf da7c 18c0 5778 20c0 35b3 6ebf
00000030: 4aed 90bf 8bb8 eabf bda3 d1bf af0b 36bf
00000040: 26d7 04c0 6348 d8bf f5a5 eebf d3a2 05c0
00000050: 1d47 26bf 20dc a6bf 7de9 e7bf 05bb b1bf
00000060: 9711 37bf a118 1cc0 db90 edbf 7ac5 edbf
00000070: 873d cdbf dd3a b3bf 66cf 26c0 2179 04be
00000080: 2d04 1fc0 94ff 2fbf 27ff fcbf db50 d13d
00000090: 4b1f 13c0 8e0b dabf efcb dfbf eed1 66bf
000000a0: ade0 34bf eae4 d7bf 3b8d bdbf 3dc0 bebf
000000b0: 200b c7be fe48 cabf c37f b5bf 4491 1ac0
000000c0: 0b39 15c0 1375 38bf 92e7 30c0 9c54 bbbf
000000d0: a0d5 cebf 206b 08c0 65d0 c6bf e4a5 d8bf
000000e0: 2a30 e5bf b61e 18bf cf49 ecbf 5476 09c0
000000f0: 53f7 e2bf f686 a4be 84dc e1bf 2da6 c5bf
00000100: 88e5 2fc0 addf f2bf 846a 9abf e611 fabf
00000110: d1f8 d0bf 44c1 8fbf 6fcc 90bf ecb4 cabf
00000120: a0c7 01c0 90bb c8bf 2bbb 2bc0 10d3 aabf
00000130: 2cd3 b9bf 5971 d4bf d069 8fbf 579a 1fc0
00000140: bf88 1fc0 7aec 30c0 e85e 4abf 6627 acbf
00000150: 1e18 7bbf d5b6 59bf cb81 18c0 a3e0 693f
00000160: d4b6 cbbe 4775 6cbf a6a8 bdbf 7941 6cbf
00000170: f680 e8bf 567a 05c0 8c61 08c0 56c6 8dbf
00000180: 70ea 8abf d5ca abbf e957 d7bf a274 d2bf
00000190: 3bdf b8bf 368c 04c0 1b79 a5bf fced f8bf
000001a0: 0c3f 00c0 6ac3 03c0 601e 10c0 3171 c3bf
000001b0: 0ab1 2cc0 3ee0 dabf c401 3abd 445b 34c0
000001c0: 291c b4bf 8ef2 49bf 8cb4 cabf b0e5 cbbf
000001d0: cabc fcbf 2e81 bfbf 15b4 95bf b5e3 88bf
000001e0: 4f02 aabf 696c 11c0 bf45 b5bf 74a0 f2be
000001f0: edf8 9fbf 0a02 07c0 6c21 babf a7df 4ebf
00000200: 7794 fdbf 54f7 3bbf 40af 04c0 3213 11c0
00000210: 2483 13c0 3e82 15c0 1aa5 523e 46b2 08c0
00000220: 6e67 14c0 9951 03bf 6ae5 33bf e555 26c0
00000230: 8874 09c0 e2c0 97bf 4c8f a3bf 2113 02c0
00000240: 210a 92bf e4a2 b2bf 96bf a5bf d671 66bf
00000250: 1616 e5bf 07b4 49c0 dadb 0ec0 7c9c 08c0
00000260: 9f69 13bf 3446 03c0 ddae 3ec0 e683 e9bf
00000270: 9992 babf 4bc5 05c0 f737 ddbf 2115 0bc0
00000280: dd9e 20c0 0ed2 cbbf be7e acbf aec0 50bf
00000290: e4aa 23c0 fc9c cfbf 39fe 43c0 2675 b1bf
000002a0: d429 c0bf e6af 82bf 5da0 e8bf 0ef0 9cbf
000002b0: bf4c 2ec0 9b09 d33e 6ec8 3cc0 7edc 03c0
000002c0: d0e8 8dbf 3722 43c0 2fbb 63be 708e c2bf
000002d0: 4aa6 31c0 72f6 fdbf a0aa f1bf 15e1 fbbf
000002e0: 974e 32c0 bc68 15c0 be89 11bf d00c afbf
000002f0: 7fdb febf c319 5abf dc32 eabf ad6e 09c0
00000300: 7aec 00c0 8c7f ebbf 2d30 513f 39a4 34c0
00000310: a511 debf 62d6 31c0 cd1c dfbf 645e efbf
00000320: 01d0 833c 4375 14c0 f9a0 36c0 57f4 b7bf
00000330: e4ed 22bf 83f5 20bf df3d cbbf 90c0 dcbf
00000340: 4977 0ac0 9551 ba3d 1c61 95bf 9a29 f1bf
00000350: 7af8 97bf 74d5 25c0 1efc b8bf 0bfa 8ebf
00000360: cb90 c1bf ad93 f9be b956 f3bf 9818 b2be
00000370: a833 efbf 5b77 51c0 4de5 94bf 09bb fabf
00000380: e658 adbf e89d 2fc0 f103 16c0 f9ee 02c0
00000390: 39b7 f7be e07c b9bf 35cc 1cc0 53e2 26bf
000003a0: 42ba d6bf 676c 9cbe 6321 b8bf db2e 99bf
000003b0: 2f6d ddbf 1b99 bebf 1c79 0fbe d3ad 8dbf
000003c0: ec41 88bf 3ed6 26c0 ab4f a2be 5365 67bf
000003d0: 4ccc d3bf 78c5 d9bf 19b6 c8bf 3c63 9e3e
000003e0: 0bfd 1abf 23f3 47bf 6d03 01bf 7b48 ecbf
000003f0: b8f4 d2bf 0c28 3ac0 c776 4ec0 c840 3fc0
-1.5589294 -1.7343465 -1.6420562 -1.5026184 -2.4435866 -1.9037373 -2.7618346 -2.1427956
-0.830602 -2.3826203 -2.507345 -0.932422 -1.1322415 -1.8337568 -1.6378094 -0.7111158
-2.0756316 -1.6897091 -1.8644396 -2.088063 -0.6495226 -1.3035927 -1.811813 -1.3885199
-0.71511215 -2.4390032 -1.8559831 -1.857589 -1.6034402 -1.4002339 -2.6064086 -0.12936832
-2.4846299 -0.68749356 -1.9765366 0.102205 -2.298785 -1.7034776 -1.748411 -0.9016408
-0.7065533 -1.6866734 -1.4808725 -1.4902416 -0.38875675 -1.5803525 -1.4179615 -2.4151163
-2.3316066 -0.7205364 -2.764134 -1.4635196 -1.6158943 -2.1315384 -1.5532347 -1.6925626
-1.7905324 -0.5942186 -1.8460025 -2.1478472 -1.7731727 -0.32134217 -1.7645421 -1.5441338
-2.7483845 -1.897451 -1.2063756 -1.9536712 -1.6325933 -1.1230855 -1.1312388 -1.5836463
-2.0278091 -1.568224 -2.6832988 -1.3345661 -1.451757 -1.6597091 -1.1204166 -2.4937952
-2.4927213 -2.7644334 -0.79051065 -1.3449523 -0.98083675 -0.85044605 -2.382922 0.91358393
-0.39787924 -0.9236645 -1.4817092 -0.92287403 -1.8164356 -2.0855918 -2.1309538 -1.1076152
-1.0852795 -1.3421274 -1.6823703 -1.6441844 -1.4443125 -2.0710578 -1.2927583 -1.9447627
-2.003848 -2.0588021 -2.251854 -1.5268918 -2.6983056 -1.7099683 -0.04541184 -2.8180704
-1.4071094 -0.78885734 -1.5836349 -1.592947 -1.9745114 -1.4961298 -1.1695582 -1.0694491
-1.3281955 -2.2722418 -1.416191 -0.4738804 -1.2497841 -2.1094995 -1.454145 -0.80810016
-1.9810933 -0.7342427 -2.0731964 -2.2667966 -2.3048792 -2.3360744 0.20570794 -2.135881
-2.3188128 -0.51296383 -0.70271933 -2.5989926 -2.1477375 -1.1855738 -1.2778106 -2.0324175
-1.1409341 -1.395596 -1.2949092 -0.9001745 -1.7897365 -3.151613 -2.2321687 -2.134551
-0.5758304 -2.0511599 -2.9794228 -1.8243377 -1.4575988 -2.0901668 -1.7282704 -2.1731646
-2.5096962 -1.5923479 -1.3476179 -0.81544006 -2.5573053 -1.6219783 -3.0623915 -1.3863876
-1.5012765 -1.020993 -1.8173939 -1.2260759 -2.7234342 0.41218266 -2.9497333 -2.0603328
-1.1086674 -3.0489633 -0.22239374 -1.5199718 -2.7757745 -1.9840834 -1.8880196 -1.9678065
-2.7860467 -2.3345175 -0.568508 -1.3675785 -1.9910735 -0.8519556 -1.8296771 -2.14738
-2.0144334 -1.8398299 0.81714135 -2.8225234 -1.7349135 -2.77871 -1.7430664 -1.8700681
0.016090395 -2.319657 -2.853575 -1.4371442 -0.6364424 -0.6287462 -1.5878257 -1.7246265
-2.1635306 0.09097592 -1.167026 -1.8840821 -1.1872704 -2.5911531 -1.445194 -1.1170057
-1.5122312 -0.4874548 -1.9010841 -0.3478439 -1.8687639 -3.2729099 -1.1632477 -1.9588329
-1.3542755 -2.7440128 -2.3439906 -2.0458357 -0.48381975 -1.4491234 -2.4499638 -0.65189093
-1.6775591 -0.30551454 -1.4385189 -1.1967424 -1.7298945 -1.4890474 -0.14011043 -1.1068672
-1.0645118 -2.6068263 -0.31701407 -0.90388983 -1.6546721 -1.7013388 -1.5680572 0.30935085
-0.6054236 -0.7810537 -0.5039585 -1.8459619 -1.6480932 -2.9086943 -3.2259996 -2.988329

fc2.weight f4 [128, 256]
00000000: 2dd0 2ebf ffb3 963f 453e 9f3e c739 b73e
00000010: e0d7 b23e 8909 a5bf 512b e93d d97c fc3e
00000020: 1389 dbbc c7d3 f03e a8d6 5abf 1c82 63bf
00000030: e3d5 773f 1029 5fbf d81d 47bd 0a48 a83e
00000040: 8863 adbe 47c2 b0be 4634 e0bf 4f9f 353f
00000050: 91f3 82be 4677 7bbe 3786 ddbe 3780 d23e
00000060: badb 56bf a1f7 3a3f 246f cc3e 9928 3c3f
00000070: b111 4dbf 57a9 143f 23be d9be 913a 73bf
00000080: 8698 72bf 8609 a73f 9449 83bf 5767 78bf
00000090: bdda 373e 50f2 aabf d074 9fbf d510 313f
000000a0: 0482 04bf ccd0 263f 04cd c1bf 7b72 dabf
000000b0: ae08 69bf 9a70 7d3f 5a6c a0be d642 5ebf
000000c0: e483 f5be 8335 d7bd b401 a23f f4c9 ffbe
000000d0: 5c5b 53be 3ca7 9bbf 5876 2a3f 8c30 733e
000000e0: c20e 70bf b660 473f d691 1ebf 781b 533f
000000f0: 4520 b33f fb74 02bf 4fb2 0a3f 06d6 3b3f
00000100: 74ad 2940 4f3e 463f 0327 b93e 97d5 a83d
00000110: 9db3 de3e ff32 8c3d fa10 3bbf 745f 163f
00000120: 5791 993d 5691 633e 8723 35bf 3f1e 6fbe
00000130: c37b 9abe c403 683f 4c56 113f 053b 413e
00000140: 6b18 5cbf 4411 793f e55f 183f 5d62 8a3e
00000150: d68e 1bbd 096c 673e 698b 373f 6d77 36bf
00000160: d742 543e 20d0 fdbd 5df1 9e3f 6697 26bf
00000170: 5cb5 943f 953f 18c0 8048 93be c357 8e3f
00000180: 5835 ef3e aa07 26bf ea2d 46bf 427a 38bf
00000190: 544d a4be 858e 4a3f dca8 163f 5a59 483f
000001a0: 05ec 193f f59e 6f3f 6a74 c2be 5800 e7bf
000001b0: 82c9 1d3f ee36 1abe 88fd 13c0 aebb fb3f
000001c0: 7229 18be c0fb 00be ed79 df3e bdc1 8e3d
000001d0: b6f2 b93d 0292 36bf 13c8 39be b6b6 763e
000001e0: 7fe9 06bf fd36 83bf 21c8 e93e c877 4c3f
000001f0: c349 3fc0 06bf 3bbe 6277 1ebf ab8c 67bf
00000200: 4ef1 c63f b052 4dbf 70b8 703f a99b 30be
00000210: c67e f23e 6d6e 12bd 448f 79bf b1a6 19bf
00000220: 2a95 be3f 6916 8e3e 6a53 cf3e 1aa3 a9be
00000230: af26 783f 8a43 99bf e5fa e9bf 831f 94bf
00000240: 4681 db3e 5300 853d 1cf9 3d3e 0e43 f6be
00000250: c5b8 92bf 17d0 04bf 19d9 b2bf 220b 93bd
00000260: 33b1 18bf 3cd9 2cbe cac4 793f 29d6 913f
00000270: ea68 cc3d 6da4 993f 7ad1 ed3e 4a2a 09bf
00000280: 16a8 f7be 03fb 06bf d12d 1f3f 5ccc cb3e
00000290: 6973 78be 1b8d 983f 4f4e 823e 5271 5ac0
000002a0: 8a3c b93f e666 0ebf aec7 6e3f a506 95bf
000002b0: c970 083f 2427 823e e705 833e c9e8 8d3e
000002c0: c0b4 56bf ab13 fd3f 2ec5 53bf 6fd8 8cbf
000002d0: 18b5 4bbd 963a d6bf f2e3 133f 0d30 383f
000002e0: ec86 31bf 4d8e 903f d022 5b3e 6182 60bf
000002f0: 9396 36bf 0491 eb3e 7fcc c2bf f684 76bf
00000300: 7871 92bf 695e ef3e 438d efbc 46ac f7be
00000310: 4239 01bf ee8e 52bf fb3b d23d b63d 8abf
00000320: 309e dfbf c039 583f 007c 55bd ab30 de3e
00000330: 2827 493f a8ba b3bd 20e8 dc3e 598d 373f
00000340: 251d c83f 1abf 893e e7d1 3fbe b064 2f3f
00000350: cedd 63bf ad29 69be 3a4b 42bf 4572 d13e
00000360: d559 e93e ba6a 083e f74b ba3e 1d0a 18c0
00000370: c5e4 243f b7e3 2ebd 8431 c5bf c90d a0bf
00000380: 4b47 533f 7c09 4f3f f911 b23f 873a ffbe
00000390: f64b 70bf 8119 22bf fa5b 1dbf b0b5 28bf
000003a0: ba1a 463f 708f dbbf 8fe9 2bbf b685 65be
000003b0: e5cf 623f fcc9 593f df09 09bf 4700 03be
000003c0: b1ce 983f 895f c3be b2ac 413f b347 c0be
000003d0: eb34 77be 1231 1cc0 2a10 193f 56c0 27be
000003e0: d806 83be f88d a8be e178 2cbf 5008 433f
000003f0: 0c13 b4bd 9134 a63f 852d e5bd 0317 a53d
-0.682864 1.177368 0.31102195 0.35786268 0.34930325 -1.2893535 0.11385215 0.49314
-0.02679876 0.47036573 -0.8548379 -0.88870406 0.9681074 -0.8717203 -0.048612446 0.3286746
-0.33865 -0.34523222 -1.7515953 0.7094621 -0.2557645 -0.24557218 -0.4326646 0.41113445
-0.83929026 0.730341 0.39928544 0.7349945 -0.8010512 0.5807089 -0.42527875 -0.9501124
-0.9476398 1.3049781 -1.0256829 -0.97032684 0.17954536 -1.3355198 -1.2457523 0.6916631
-0.5176089 0.6516235 -1.5140691 -1.7066187 -0.9102887 0.9899994 -0.31332666 -0.86820734
-0.47952187 -0.105082534 1.265677 -0.49958766 -0.2064032 -1.2160411 0.6658683 0.23748988
-0.9377252 0.77881944 -0.6194128 0.8246379 1.3994223 -0.5095975 0.5417833 0.7337345
2.6512117 0.77438825 0.36162576 0.08243864 0.4349641 0.06845664 -0.7307278 0.587394
0.074984245 0.2222341 -0.70757335 -0.23351382 -0.30172548 0.90630746 0.56772304 0.1887017
-0.8597476 0.9729197 0.59521323 0.2702817 -0.037978016 0.22599806 0.716971 -0.7127598
0.20728622 -0.12393212 1.2417408 -0.65074766 1.1617846 -2.3788807 -0.2876625 1.1120533
0.46720386 -0.64855444 -0.7741381 -0.7206155 -0.32090247 0.7912372 0.5885141 0.7826134
0.6012576 0.93601924 -0.37979442 -1.804698 0.616356 -0.15060017 -2.3123493 1.966665
-0.1485956 -0.12596035 0.4364771 0.069705464 0.090794966 -0.7131654 -0.18142729 0.24093136
-0.52700037 -1.0251156 0.456605 0.7987027 -2.988877 -0.18334588 -0.61900914 -0.9044902
1.554239 -0.80204296 0.9403143 -0.1724688 0.47362345 -0.03574984 -0.9748423 -0.60019976
1.4889271 0.27751473 0.40493327 -0.3313225 0.96934026 -1.1973736 -1.8279692 -1.1572117
0.42872065 0.064942025 0.18552059 -0.48098034 -1.1462637 -0.5188002 -1.3972503 -0.07179858
-0.59645385 -0.16879743 0.975659 1.1393481 0.09980948 1.2003304 0.4644888 -0.53580153
-0.48370427 -0.52726763 0.62179285 0.3980435 -0.24262775 1.1918062 0.2545037 -3.4131665
1.44716 -0.5562576 0.9327344 -1.1642653 0.53297096 0.25420487 0.2559044 0.27716663
-0.8386955 1.9771627 -0.8272275 -1.100355 -0.04973325 -1.6736629 0.5776969 0.7194832
-0.693465 1.1293427 0.21399999 -0.8769894 -0.7132351 0.46009076 -1.5218657 -0.9629663
-1.1440878 0.46751717 -0.029242164 -0.48373622 -0.50477993 -0.82249343 0.102653466 -1.0800083
-1.747015 0.8446312 -0.05212021 0.43396506 0.7857537 -0.08775836 0.43145847 0.71700054
1.5633894 0.2690361 -0.18732415 0.6851301 -0.8901032 -0.22769804 -0.75896037 0.40907493
0.4557635 0.13321963 0.36386082 -2.3756173 0.64411575 -0.042697635 -1.5405736 -1.2504207
0.8253066 0.80873847 1.3911735 -0.4984934 -0.9386591 -0.63320166 -0.6146847 -0.65902233
0.7738453 -1.7153149 -0.6715326 -0.22414288 0.8859847 0.8507383 -0.5353069 -0.12793075
1.1938077 -0.38158825 0.7565414 -0.37554702 -0.2414128 -2.440495 0.5979029 -0.16381964
-0.2559116 -0.32920814 -0.67371947 0.7618456 -0.087926954 1.2984792 -0.11190323 0.0806103

fc2.bias f4 [128]
00000000: 3a08 cfbf 1a1f 18c0 b607 15c0 960b 7fbf
00000010: e692 27c0 8dee cebf 8eee 41bf be83 f2bf
00000020: be4f 92bf fe63 1abe 91b5 02bf 37ad 54c0
00000030: a878 01be 6d74 0cc0 e1bd 5c3e f53d 0abe
00000040: 6b24 15c0 b11b 6fbf a756 07be 7868 01c0
00000050: 3da2 f2be f723 29c0 6772 d8bf c97f 34c0
00000060: de29 833e 6aea 8ebf 33fd 00c0 acc0 6cbf
00000070: 8bb1 cbbf 6da6 96bf 2efa d7bf 5187 13bf
00000080: e810 eabd d49b b6bf aaa2 c9bf f49c 523d
00000090: 307e 7abf eea6 c6be 2932 11c0 0f38 0cc0
000000a0: ceff 0cc0 38bb d6bf 91a2 77bf d9e8 11c0
000000b0: 3182 28c0 b3b2 c8bf 5ed7 cabf bc99 0ec0
000000c0: 29b5 3bc0 39f5 0dc0 0253 04c0 20d1 1cc0
000000d0: 29ce 17c0 1721 19c0 7c76 04c0 53a8 133e
000000e0: 78ac 28c0 292d a8be c25d 9fbf 2b58 9dbf
000000f0: 56b3 2ec0 b59a c7bf 1f81 d7bf 5066 6abf
00000100: 0ccd 6abf 3ea9 b9bf 79a6 fdbe 4742 cdbe
00000110: c4e4 47bf 9dee 41bf 938b 10bf 24b7 72bb
00000120: 36dd 42bf aa92 37c0 9177 1fc0 96ca c5bf
00000130: 5e65 1f3f c285 adbf 7f85 5a3f 532b 393e
00000140: 4e96 5fc0 90bb c7bf 6603 4ec0 518e 26c0
00000150: 1b28 ffbf c161 e8bf 8f4c 83bf 9815 3b3f
00000160: 88ac 4bc0 c471 e5bf 9973 5ac0 3f7f 1ebf
00000170: 7774 65bf e2a7 a8bf 396c 38bf 19a5 b7be
00000180: e4e7 33c0 d445 b1be e1bb 7ebe 6125 5cbf
00000190: ffa0 debf 4908 75bf 92da f7bf 1da1 e3bf
000001a0: 2f6b 35bf fc97 51c0 841b c0bf 4c81 97bc
000001b0: f713 6cbf a7fe 72c0 97a2 78bf 97c5 21c0
000001c0: aa77 08c0 a888 37bf c491 29bf 21db 3dc0
000001d0: cdac 473d 144d 15c0 bf8e 13c0 cb8a 18bf
000001e0: 60bc 47c0 4ec1 da3e 8e70 cbbf 4e52 9bbf
000001f0: 40d7 9dbf fc4d 53bf ac05 bcbe 85e7 d6be
-1.6174386 -2.3768983 -2.3285956 -0.99627054 -2.618341 -1.616655 -0.7575463 -1.8946455
-1.1430585 -0.15077206 -0.510583 -3.3230722 -0.12643683 -2.194606 0.21556808 -0.13500197
-2.3303478 -0.9340163 -0.13216649 -2.0220013 -0.47389403 -2.6428201 -1.6909913 -2.8202994
0.2561788 -1.1165287 -2.015454 -0.92481494 -1.5913557 -1.1769539 -1.6873224 -0.5762835
-0.11429006 -1.4266305 -1.5752766 0.051419213 -0.97848797 -0.38799232 -2.2686865 -2.1909215
-2.203113 -1.6775885 -0.9673243 -2.279837 -2.6329463 -1.5679535 -1.5846975 -2.2281332
-2.9329321 -2.2180922 -2.0675664 -2.450264 -2.371958 -2.3926446 -2.0697317 0.1441968
-2.6355267 -0.32846954 -1.2450488 -1.2292532 -2.7296958 -1.5594088 -1.683628 -0.91562366
-0.91719127 -1.4504774 -0.4954107 -0.40089628 -0.78083444 -0.7575472 -0.56462973 -0.003703543
-0.7611879 -2.8683267 -2.4916728 -1.5452449 0.6226405 -1.3556445 0.8535995 0.18082933
-3.4935489 -1.5604115 -3.2189574 -2.6024363 -1.9934114 -1.8154832 -1.0257739 0.73079824
-3.1824055 -1.7925344 -3.4133055 -0.6191291 -0.89630836 -1.3176234 -0.72040135 -0.35868147
-2.8110285 -0.34623587 -0.24876358 -0.85994536 -1.7392882 -0.9571577 -1.9363577 -1.7783543
-0.70866674 -3.2749014 -1.5008397 -0.01849427 -0.92217964 -3.7967927 -0.9712309 -2.527685
-2.1323037 -0.71692896 -0.66238046 -2.9664996 0.04874878 -2.3328295 -2.3055875 -0.5958678
-3.1208725 0.42725605 -1.5893724 -1.2134492 -1.2331314 -0.8254087 -0.36723077 -0.4197351

fc3.weight f4 [4, 128]
00000000: 329f f13e 2102 0cbf ad9f 94bd bddc 41be
00000010: 8994 33be 7940 093d 6e8d 463e 208a 603d
00000020: ca44 e1be 8417 af3e 8e76 dfbc d4b1 14be
00000030: 3c5c 89be bc04 623d 8d3b a6be 7c2b a03d
00000040: 64d3 933d 9da7 9d3d 5276 18be 390d da3c
00000050: c7a0 aa3e c051 0f3f e74a b03e 8eed ed3e
00000060: 20ee f33d dee4 f3bd f211 00bf c005 173e
00000070: 1651 fdbd 2211 013e da91 a63e 9849 b0be
00000080: fecf 55bd facb b13d e5bc 1a3e 9135 25be
00000090: 47f7 d23e d674 0cbd a0dc 103e 5adf 7f3d
000000a0: 01a8 363f 08ff 6cbd 7c24 4bbe 4890 eebd
000000b0: 290f 87be 65ac 78be 3268 f13d 3006 133e
000000c0: ffcf 913e 56d6 923d f2f4 67be 3fb5 f6be
000000d0: 02a4 8cbe 3f7e 93bd 16d1 47be eabe 333e
000000e0: bfc9 40be 42fa 5e3e dd32 97be 2c5f 793e
000000f0: f8b0 393d 86b3 683d cad8 b1bd 1e56 9ebe
00000100: d042 673c b5ce 9f3c 9268 80be 7e04 23be
00000110: 2e84 9b3d 5fbb b7bd 5527 a2bd 6e09 05be
00000120: 9504 023d 82a8 f83d bd98 c4bd f291 013e
00000130: 47a2 943d cdb2 813e 8c5e ba3b fad4 2d3d
00000140: 81c8 05be e760 e4bc 210e 9cbd 2947 fabb
00000150: f50d 7abd 4f5b 08bd 69d8 5cbd ae71 503e
00000160: 4dd4 fc3e 9646 f8be aac6 fabd 8f30 173f
00000170: bbcf b9bb 0d66 0ebe d8bd 853e be62 90be
00000180: bd76 f33d adb2 c43d f464 843d 4a1c 0dbd
00000190: c82b 25be 768d 99be de1b a03e 3635 9fbd
000001a0: 984a cdbe 5710 9cbe d2be 313f cfec 2dbe
000001b0: 198b 153b ea62 073e dcbb e7be 382d 543e
000001c0: 20f6 c23d fb2d 1ebe e6c0 11be bd52 953e
000001d0: a22a 203e b204 6d3d 7112 c9bd df43 b73f
000001e0: 734c 123e ee38 1ebd a2b6 69be d704 af3b
000001f0: fbbe 93be 30df 843d 5095 08be bc4b 3d3e
00000200: 25b5 1fbd d2e8 663e 0f88 f33e 3978 c3be
00000210: 6d69 703f da62 f9be 32d4 34be 02b9 5dbf
00000220: 494b 9cbd 26e6 633d ca40 33be e04c f93e
00000230: 003d a53e c959 3b3d 2a3e 033e 98e7 03bf
00000240: b8dc 7a3d 97a0 34be 0a15 dbbc 2ed0 0cbc
00000250: 4be0 62bd 5c6a 0cbe bfd0 003e a567 78bd
00000260: 063f 0d3d 4a75 aa3c 46ac 203d a8ba 5f3d
00000270: b875 e4be 9f4f f93c c1b0 1c3d 9d26 e73d
00000280: 76fd 1ebe af35 913e 904d 76be e1b0 a4be
00000290: 7470 cbbc a33a 2fbc 97ce 8abe 7acf 87be
000002a0: 789b 85bd a2b6 1d3e 587c 97bd 2813 7a3e
000002b0: 787d a93e 5d01 00ba bc9d a63e fb4e 7c3e
000002c0: 8419 243f 0c29 8dbc 5069 99be 9afc b33e
000002d0: 8e40 75be 1404 d3be f8ae 2a3d e75c be3d
000002e0: f4a9 2bbf b4f7 8f3e 91b9 63ba b323 763e
000002f0: deba 1dbd 0493 06be dee6 913e f275 553e
00000300: 0050 633f 7b83 07bf fc0a fb3d 3391 cd3e
00000310: 1705 f9be 4589 bd3e 2bf3 83bd 97f7 39bd
00000320: 6bdc dc3e c6d1 ac3e 39b8 be3d 1200 c33d
00000330: 7360 d2bc 8025 eb3d 78a9 a83d 8b07 bebe
00000340: 9a74 7ebe 111b 9ebe d3f6 12be 7c4e bfbc
00000350: d89b 963e 6b28 66be 6cbd e33a f013 bd3d
00000360: 44e8 003f dbb8 533d 2e11 b43d 08d5 cd3d
00000370: 2ec8 1abc e97c 22be 5870 d93d 641d cfbd
00000380: 76ce bebd dd0e f63d f4c2 9abc 833c afbe
00000390: ae72 4dbd a586 0fbe cdf0 793e 0236 443d
000003a0: 867b 18bf 3608 e43e 5628 74be 6712 adbc
000003b0: c3be bdbc 69ac 9bbe ccd9 fd3e 0f75 1c3f
000003c0: ca06 693d 10c6 a8be 6182 fbbc 1926 633f
000003d0: 9dea 80bd 176a 463b aaf0 7a3f 18a3 f2be
000003e0: 39a6 01bf c9da 0e3f 823e 2b3f 3666 0dbe
000003f0: 8fa1 0f3e 1283 063f 6a09 133f c8ad 47be
0.4719177 -0.5469075 -0.07257018 -0.18931861 -0.1753713 0.03350875 0.19389889 0.054819226
-0.43997794 0.34197628 -0.027278211 -0.14520961 -0.26828182 0.055180296 -0.3246731 0.07820794
0.07218054 0.07697985 -0.14888886 0.026617633 0.33325788 0.55984116 0.34432146 0.46470302
0.11910653 -0.11908887 -0.5002738 0.14748287 -0.123689815 0.12604192 0.3253315 -0.34431148
-0.05220031 0.086814836 0.1511112 -0.16133715 0.41204283 -0.03429111 0.14146662 0.062468864
0.71350104 -0.057860404 -0.19838136 -0.11648613 -0.26378754 -0.24284513 0.11787452 0.14357829
0.28479 0.071697876 -0.22652033 -0.48185155 -0.27468878 -0.07201814 -0.19513354 0.17553297
-0.1882696 0.21775153 -0.29530993 0.24352711 0.045334786 0.056811832 -0.08683927 -0.30925077
0.01411505 0.019507745 -0.2507978 -0.15919682 0.07593571 -0.08971285 -0.07917658 -0.12991878
0.03174265 0.12141515 -0.09599445 0.1265333 0.072575144 0.25331727 0.0056875404 0.04243944
-0.13064767 -0.027878238 -0.076198824 -0.0076378775 -0.061048467 -0.033290204 -0.053917322 0.20355865
0.49380723 -0.48491353 -0.122449234 0.5905847 -0.0056705154 -0.13906117 0.26121402 -0.28200334
0.11887882 0.09604392 0.06464568 -0.034450807 -0.16129982 -0.2999074 0.3127126 -0.07773821
-0.40095973 -0.30481216 0.69431794 -0.16984867 0.0022818504 0.13221326 -0.45260513 0.20720375
0.09519601 -0.15447228 -0.14233741 0.29164687 0.15641263 0.057865806 -0.098179705 1.4317588
0.14286976 -0.03862851 -0.22823575 0.005341153 -0.28856644 0.06487882 -0.13338208 0.18485922
-0.038991112 0.22549751 0.47564742 -0.3817766 0.93910867 -0.4870823 -0.17659071 -0.86610425
-0.07631547 0.05563941 -0.17505184 0.48691463 0.32273102 0.045739923 0.12816682 -0.5152526
0.06124565 -0.17639385 -0.02674343 -0.008594556 -0.055389684 -0.13712448 0.1257963 -0.060645718
0.034483932 0.02080788 0.039226793 0.05462137 -0.44621062 0.030433474 0.038254503 0.11286662
-0.15526375 0.2836127 -0.24053025 -0.32166198 -0.024833895 -0.010695132 -0.2711074 -0.2652548
-0.06523794 0.154017 -0.073967636 0.2442137 0.33103538 -0.00048830156 0.32542217 0.24639504
0.64101434 -0.017231487 -0.2996316 0.35153657 -0.23950407 -0.4121405 0.04167077 0.092950635
-0.670562 0.2811867 -0.00086870143 0.24037056 -0.03850829 -0.1314202 0.2849645 0.20845774
0.88793945 -0.52935 0.122579545 0.4014984 -0.48636696 0.3701879 -0.06442865 -0.045402136
0.43136916 0.33753794 0.093124814 0.09521498 -0.025680756 0.11481762 0.082354486 -0.3711513
-0.24849167 -0.30880025 -0.14351968 -0.023352854 0.29415774 -0.22476356 0.0017375178 0.092323184
0.5035441 0.051689964 0.08792339 0.10050398 -0.009447141 -0.15867962 0.10617131 -0.10113028
-0.09316723 0.12014554 -0.018891789 -0.34225854 -0.050158195 -0.14016207 0.24408264 0.04790307
-0.5956348 0.44537514 -0.23843512 -0.021126939 -0.023162251 -0.30404976 0.49580228 0.6111612
0.05689124 -0.3296361 -0.030701818 0.8873001 -0.06294749 0.0030275637 0.98023474 -0.47390056
-0.5064426 0.5580259 0.66892254 -0.13808522 0.14026473 0.5254375 0.5743624 -0.19499886

fc3.bias f4 [4]
00000000: 7756 d9bc 7f44 1f3f 7e7a e53d e6e4 843e
-0.026530487 0.6221389 0.11205004 0.25955886
