saved_models/critic_checkpoint.pth (torch, 171239 bytes, 5 tensors)

fc1.weight f4 [256, 33]
000000 1d 70 04 be bc 72 9d bd ed ac 89 3c 19 23 7a 3d
       -0.12933393 -0.076878995 0.01680609 0.061068628
000010 d7 a5 32 be 9d a3 0e be 39 53 28 be 7d 89 1b 3d
       -0.17446075 -0.13929601 -0.16437997 0.037972916
000020 1f d7 a8 be bc 7b e9 3d 9b d3 3a bd 11 db ad bd
       -0.32976624 0.114005536 -0.04561196 -0.08489049
000030 23 5e f1 bc 99 8f a5 3d e9 ca 50 3d 81 32 7c bd
       -0.029463833 0.0808403 0.05097476 -0.0615716
000040 02 e9 66 3e 5e 9e 9a bc ce 56 05 be 88 d7 21 3e
       0.22549823 -0.018874343 -0.13021395 0.15804875
000050 09 86 4c bd ea c4 54 3e a5 7f c4 3d 24 21 13 3d
       -0.049932513 0.20778242 0.09594659 0.035920277
000060 c8 48 0f 3d c0 3f dc 3c 94 6d f7 3c d7 a0 28 3e
       0.03498152 0.026885867 0.030203618 0.16467606
000070 bb 32 9c 3d 50 4e ac bc ac 6c 41 be 10 ab c6 3c
       0.076268636 -0.021033436 -0.18889111 0.02425149
000080 e5 05 80 3e c0 c5 f4 3d 15 fd 80 3c 39 ee 5c 3d
       0.25004497 0.1195178 0.015745679 0.053938124
000090 35 34 b6 3d 1d fe ee bd 53 74 06 3e 09 26 24 3d
       0.088966765 -0.11669562 0.13130312 0.040075336
0000a0 09 20 db ba 31 b9 32 be 48 ac 08 be 8d 37 09 3e
       -0.0016717921 -0.17453457 -0.1334697 0.13400097
0000b0 01 90 07 bd eb e2 00 3d c3 c4 7a bd 7b 1f 4f bc
       -0.033096317 0.031466406 -0.061222803 -0.012641783
0000c0 f6 ac 07 3c 41 c6 e0 bc e9 34 58 3e 92 29 cd 3d
       0.008280983 -0.027438285 0.21113934 0.100176945
0000d0 cc 8c ea bc 31 86 d3 bc 1c 53 90 bd f2 12 29 bd
       -0.02863159 -0.025820823 -0.07047102 -0.041277833
0000e0 04 94 f9 3b 6d d2 a4 bc 9b a0 89 bd e5 cc 27 3d
       0.007616522 -0.02011987 -0.06720086 0.040966887
0000f0 d3 f8 98 bc 75 1c 8c bc 7c fa 4a bd 3e a2 f8 bc
       -0.018673336 -0.017103413 -0.049555287 -0.0303508
000100 08 0b 3c 3d d2 09 0c bf 7a 41 7f 3d 8c 4b 09 3e
       0.045908958 -0.54702485 0.062318303 0.13407725
000110 f5 7e cb 3d d5 0e 71 3d 9f 87 52 3e 28 43 d6 be
       0.099363245 0.058852036 0.20559548 -0.4184811
000120 68 df 0e 3c 2a 44 b8 bd 2e 62 e5 3d e2 bd d9 3c
       0.008720256 -0.08997376 0.11200367 0.026579801
000130 a9 d5 b5 bd 5b 9d 78 3d 10 d3 01 bc d9 8f 3b be
       -0.08878643 0.06069694 -0.007923856 -0.18316592
000140 6f 36 f5 3c a6 6e 73 3d 5f a0 ab 3e 0a 0d 00 be
       0.029933183 0.059431694 0.3352079 -0.12504974
000150 8d 7c 7c bd 04 d0 f2 3e f2 45 27 bd 0d 0d 8f 3c
       -0.06164222 0.47424328 -0.04083819 0.017462278
000160 3f 38 65 bc 90 19 a5 bd 51 4e f8 3c 8a 3b 9a 3d
       -0.013990461 -0.08061516 0.030310782 0.075308874
000170 f5 ba e4 3d 60 ef 1b 3e 34 98 0b bc 78 dd 3f 3c
       0.11168472 0.15228033 -0.008520175 0.011710517
000180 57 03 2f bd 34 00 77 3d 3f 53 42 be 47 d8 de bd
       -0.042727794 0.060302928 -0.18977068 -0.108810954
000190 04 ed 2c 3e f2 e5 b1 3c c2 67 06 be 3e 12 fe bd
       0.1688729 0.021716092 -0.13125518 -0.12405823
0001a0 ee 62 34 3e a1 bf ac be 6b ce 9a 3d ff 3c 2c 3c
       0.17615864 -0.3373995 0.07558902 0.0105125895
0001b0 74 dd d8 3b 33 11 2e 3c bd bf 4d bb 7c 9a d1 bd
       0.006618196 0.010624218 -0.0031394802 -0.10234544
0001c0 53 fa e9 3d c6 c3 03 3b 55 c4 7e 3d 20 d4 10 3d
       0.11424699 0.0020105704 0.062198956 0.03535855
0001d0 cc 39 71 bd 56 04 1e 3e 30 59 a0 3d 01 dc ad bc
       -0.05889301 0.15431342 0.07829511 -0.02122307
0001e0 12 a6 ef 3d 15 7a 70 3c 5c e6 60 3d b3 3f 97 bd
       0.11701597 0.014677544 0.054907188 -0.073851965
0001f0 9c e7 e1 bd 99 c1 5e bd 5c 3e 5e 3e 64 da 8a 3d
       -0.11030504 -0.054383848 0.21703476 0.06779936
000200 d6 11 72 3d c1 e6 49 be 00 dd 24 3c 34 24 27 bf
       0.05909904 -0.19716932 0.010062456 -0.65289617
000210 3f 74 28 be aa 3b fd bb cd 20 2c be 9e a5 01 bc
       -0.16450594 -0.00772806 -0.16809388 -0.007913021
000220 11 2e 53 be eb 4e 9d bd 3e f2 e8 3c e0 3a 5c 3c
       -0.20623042 -0.07681068 0.028435823 0.013441771
000230 81 5c 06 3e e5 a5 48 bd 69 b8 c0 3c 5d f8 02 3c
       0.13121225 -0.048986334 0.023525434 0.007993785
000240 f1 e5 a9 bb 99 e3 89 3e cd 53 7b 3c 47 50 71 3e
       -0.005184882 0.26931456 0.015339804 0.2356578
000250 c5 c1 45 bd 88 c2 54 bd 9d 05 3e 3c 8f db 34 bc
       -0.048280496 -0.051943332 0.011598018 -0.011038675
000260 ce ef 96 bb cc f6 d3 b9 48 42 31 3c 62 ec 31 3d
       -0.0046062237 -0.00040428934 0.010819025 0.043438323
000270 8c 4b 8e b9 20 11 6f 3d 12 0b 1f be d4 1e 38 3e
       -0.00027140637 0.05836594 -0.15531567 0.1798051
000280 ad 96 1b be 90 60 0e 3d 98 0e ce bd 00 1e e4 bc
       -0.15194197 0.034760058 -0.10061377 -0.027846336
000290 0d 3b 84 3c c6 04 19 be 6f 30 83 bc 0e d7 08 3d
       0.016141439 -0.14943227 -0.016014306 0.033408217
0002a0 37 60 b0 3e ca 9c e4 3d 09 0a 0b be 74 3b 9d be
       0.34448406 0.11162718 -0.13578047 -0.30709422
0002b0 9a f5 90 bd 35 72 0c 3d ef b0 1e 3e a4 ae 92 bd
       -0.07078095 0.034288604 0.15497182 -0.07162216
0002c0 4a 47 a8 bc 30 10 6e bc 29 a8 0f 3d 32 4b e5 bc
       -0.020541806 -0.014530227 0.03507248 -0.027989957
0002d0 64 32 73 bd 86 54 55 bd 89 2d 91 bd 67 0b 95 be
       -0.059374228 -0.05208256 -0.07088763 -0.29110262
0002e0 42 38 78 bc 5f e2 20 bc aa d8 6f 3d ef 76 8b 3d
       -0.015150132 -0.009819596 0.058556236 0.06809794
0002f0 01 a8 9a 3d ed 19 37 3d 7b dd 2f bd 0b 67 08 3d
       0.075515755 0.04470246 -0.04293583 0.033301394
000300 57 fd 26 3e 19 7e bc bc 10 69 3c bd 48 15 c3 bd
       0.16307579 -0.023009347 -0.045998633 -0.095255435
000310 a8 c2 35 3d 7e dc e0 bb 2f a3 e3 bd df 6a 32 3e
       0.04437509 -0.006862222 -0.11115109 0.1742358
000320 c5 75 23 bc 00 b0 62 be ca 63 c9 be 53 ad 83 bb
       -0.009976809 -0.22137451 -0.39333946 -0.0040184646
000330 0a 98 f4 bc 03 16 99 bd 05 ee 59 be 6f 3d 54 be
       -0.029857654 -0.074749015 -0.21282203 -0.2072656
000340 4e b4 a3 bd cf 98 e5 3d 0b 68 0c 3e 09 02 a6 3c
       -0.07993375 0.112107866 0.13711564 0.020264642
000350 b6 ad 71 3d 46 47 0c 3c f9 91 81 bd d0 e5 06 3f
       0.059003554 0.008561915 -0.0632667 0.52694416
000360 75 16 60 3c 41 45 93 bc 63 2c 4f bd a9 c1 a6 3d
       0.013677229 -0.017977359 -0.05057944 0.081424065
000370 61 7a b4 bb d9 fc 36 bd e8 e6 89 3d 89 e2 aa 3d
       -0.0055077528 -0.044674728 0.06733495 0.083439894
000380 0c c2 70 3d 80 ef 26 3e 0a 3d c6 3a 40 2a 74 bd
       0.058778808 0.163023 0.0015124392 -0.059610605
000390 a4 9a 68 bd 80 e6 0b 3b 29 d5 08 bd b0 f6 c7 3d
       -0.0567881 0.0021347106 -0.03340641 0.09763849
0003a0 fd b3 91 3e 2e 5c 95 3d 17 5a 5e 3e 59 15 e7 3d
       0.28457633 0.072929725 0.21714054 0.112833686
0003b0 a6 9f 3e b9 69 3f 5c 3e 0e a9 0f 3c fd 79 1c 3d
       -0.00018179286 0.21508564 0.008768333 0.038202275
0003c0 40 2f 7a 3e 44 29 48 bc 2a 03 19 3d fe 15 7d bb
       0.24432087 -0.01221687 0.037356533 -0.0038617845
0003d0 3b d1 3a 3e aa 24 cb bd e3 b9 ef bd c9 47 4c be
       0.18243878 -0.099191025 -0.11705377 -0.19949259
0003e0 32 b6 2e 3e a1 1c 17 bd 00 fc 55 3e c1 1b 4a 3d
       0.1706169 -0.036892537 0.20896912 0.049342874
0003f0 bd d5 e5 bb 9e 07 f1 3c 54 fe 9f 3c 29 1b 80 ba
       -0.007014005 0.029422577 0.019530453 -0.0009773719

fc1.bias f4 [256]
000000 72 52 ea bc 32 07 8e bd ff c2 3c be 85 7b bb be
       -0.028603766 -0.06934966 -0.1843376 -0.36617675
000010 ca f2 0f be 96 38 ab bd 69 ee 64 be 59 15 59 bd
       -0.1405746 -0.08360402 -0.22356571 -0.052998874
000020 9f 80 e5 bd a4 64 21 be c3 cb c3 be 3f a8 99 be
       -0.11206173 -0.15761048 -0.38241395 -0.30011174
000030 f5 64 3d 3d 2f 19 ac 3c fb 7b f9 3d 86 81 bb 3d
       0.04623886 0.021008102 0.121818505 0.09155564
000040 5d 4a 9f be 70 31 10 bd 07 a5 79 be 9d 7e 02 be
       -0.31111422 -0.035203397 -0.24379359 -0.12743612
000050 b3 ef db bd c6 f9 c3 bd 7f 0f ad 3d 10 28 6e bd
       -0.107390784 -0.09569125 0.08450221 -0.058143675
000060 1d 73 20 bd c8 fc 07 be d2 1e 33 be 86 3b 0a bd
       -0.03917228 -0.13280022 -0.17492226 -0.033748172
000070 23 17 45 be 96 23 68 bd 3e fd 46 bd b8 6d 92 be
       -0.19247107 -0.056674562 -0.048581354 -0.28599334
000080 ad 6a 02 3d b6 15 a0 be 71 90 75 be f8 9f a8 3a
       0.031840015 -0.31266564 -0.23980881 0.0012865057
000090 4f 5d fc 3d 8f 25 e8 bd 90 17 7d 3d 93 77 18 3d
       0.12322485 -0.11335289 0.06179005 0.03722341
0000a0 c2 3e 80 be 32 fc 7c 3e 90 59 6e be 48 db cc 3d
       -0.2504788 0.2470558 -0.23276353 0.10002762
0000b0 85 32 c5 be 15 2f 08 3e 1f a1 2c 3d 4d 48 60 be
       -0.38515106 0.1329921 0.042145845 -0.2190258
0000c0 03 86 a9 3d 9c 59 b1 3d 84 1f 72 bd e0 33 3f bd
       0.08277514 0.0865967 -0.059112087 -0.04668033
0000d0 4f 68 47 be 61 13 9f be 59 b8 b1 be 7e 2f ab 3d
       -0.19473384 -0.31069472 -0.3471096 0.08358668
0000e0 11 1c 1a be c3 b6 07 be 13 0d 8a be e5 2c 75 be
       -0.15049769 -0.13253312 -0.269631 -0.23942907
0000f0 c9 39 3b bd a0 48 52 be fc 2a a3 bd 6d e4 bd 3d
       -0.045709405 -0.20535517 -0.07967183 0.092720844
000100 6d 12 4f bd e1 33 0c 3d ab f5 06 be 68 89 e4 3c
       -0.05055468 0.034229163 -0.13179652 0.027897552
000110 b8 a2 40 be 55 05 23 be 0c 58 cf be 4a 29 1f bd
       -0.18812072 -0.15920003 -0.40496862 -0.038857736
000120 09 b1 07 be 44 a7 b4 3c 7c 83 12 3d 01 fb a7 be
       -0.13251127 0.022052415 0.035769925 -0.32808688
000130 4c 3e 05 be 41 93 0d be c9 82 72 be 73 39 d9 be
       -0.13012046 -0.13825704 -0.23682703 -0.42426643
000140 69 40 09 be 09 36 5e be fe 18 fc bd 22 8b 5b be
       -0.13403477 -0.217003 -0.123094544 -0.21439794
000150 02 75 df bd 58 d7 8d be b6 b3 ff bc e7 cc 3e be
       -0.10910989 -0.27703357 -0.031213623 -0.18632852
000160 b5 cc e2 bd 57 94 7d be 33 ed b4 bd 92 68 f1 bd
       -0.11074201 -0.24763618 -0.08834305 -0.11787523
000170 ea c0 b5 be 97 79 85 be a5 97 be bd 2e 8f 7d be
       -0.35498744 -0.26069328 -0.09306268 -0.2476165
000180 c1 a3 ae bd c4 2b 65 be 18 2e f1 bb a7 02 5e 3d
       -0.08527327 -0.22379977 -0.007360231 0.05420175
000190 ab 8b 78 be 39 3a 4e be 6e c5 31 be 15 e5 a9 be
       -0.24272029 -0.20139398 -0.1736047 -0.33182588
0001a0 29 13 48 3d 49 dd 69 bd 78 ff 48 be 95 34 c5 bc
       0.048846398 -0.0570958 -0.19628704 -0.024072925
0001b0 c0 9a 4c be b7 93 2f bd 60 90 6b bd aa e4 45 be
       -0.19980907 -0.04286548 -0.057510734 -0.1932551
0001c0 c3 56 c6 bd 3a d3 d8 bd b9 20 66 3d f0 8c a2 bd
       -0.09684517 -0.10587163 0.05618355 -0.07937038
0001d0 2b 79 ee ba e8 5a 79 bd 44 d1 d1 be af f1 ba 3d
       -0.001819407 -0.06087771 -0.4097997 0.09128129
0001e0 9b 80 a8 be 9b d9 a5 3c fe d2 d9 bc 7e 1f c8 bd
       -0.32910618 0.020245364 -0.026589867 -0.09771632
0001f0 60 22 8f be df ed 36 bc f5 7e 1a 3d 1e c1 6b 3c
       -0.27955914 -0.011165111 0.037718732 0.014389304
000200 e2 d7 09 be 43 60 dc 3c 08 73 02 3d 68 53 b6 3d
       -0.13461259 0.02690137 0.031847984 0.08902627
000210 bd 50 62 bd 3b 46 d3 bd ac e4 60 bd ba 4f 6f bc
       -0.05525278 -0.1031613 -0.05490558 -0.014606411
000220 fb 40 d2 bd b1 53 2a 3e 6c d6 a6 3a 57 20 1a be
       -0.102663 0.16633488 0.0012728698 -0.15051399
000230 70 7f 8e be a7 1d 2d be 88 40 d0 3d c9 75 5b be
       -0.27831602 -0.16905843 0.10168558 -0.2143165
000240 a0 6e ad 3d 18 0f 90 be 32 2e 35 be 78 5b 42 be
       0.08468366 -0.28136516 -0.17693403 -0.18980205
000250 ba 97 87 bd 5b f8 a2 be bf 35 a5 bc 9c 40 3e be
       -0.066207364 -0.31830105 -0.02016723 -0.18579334
000260 4d ad 4c bc 49 d6 3e be 76 a5 b3 bc 17 12 9c be
       -0.01249249 -0.18636431 -0.021929484 -0.3048255
000270 d4 f3 1c 3e b3 f2 c7 3d bf 1c ae 3d e0 99 b3 be
       0.15327388 0.09763088 0.08501577 -0.35078335
000280 40 d1 2a be 51 93 46 be 17 aa 4d bd 52 b3 fd bd
       -0.16681385 -0.19392134 -0.05021104 -0.12387718
000290 2c 5b 2d be da 5e 33 bd 5e 59 15 be 63 46 a5 be
       -0.1692931 -0.04379163 -0.14584872 -0.32280263
0002a0 63 40 86 3c 58 eb c8 3d b9 7f 7c bc de 5b 59 3d
       0.016388124 0.09810513 -0.015411311 0.053066127
0002b0 31 2b dc bd 52 e5 be bd 71 95 3b be 0e 6e aa bd
       -0.107504256 -0.09321083 -0.18318726 -0.083217725
0002c0 d8 f8 33 be d9 36 04 be ac 85 da 3b 6f 09 da bb
       -0.17575395 -0.12911548 0.006668767 -0.0066539566
0002d0 ae ae 26 be f7 52 8d be 0c 88 7d 3d bb 25 b9 bd
       -0.16277573 -0.2760236 0.061897323 -0.090404
0002e0 15 0c 0d bd 8f 0a 45 3c 03 4c 1c be aa 21 4f bd
       -0.03443535 0.012026443 -0.15263371 -0.050569214
0002f0 3a 40 9e be 75 97 f7 bd 43 5e d4 bd d3 66 fa bd
       -0.30908376 -0.12089435 -0.103695415 -0.122266434
000300 97 b0 52 be 1c f0 19 be 3d 69 8d bd 6c 16 b3 bc
       -0.20575176 -0.15033 -0.06904838 -0.021861278
000310 58 d6 a5 bd 4a b6 3c be d6 d5 b8 ba 65 55 6a 3d
       -0.080975235 -0.18428913 -0.0014101814 0.057210345
000320 5c 56 52 be e3 a8 bd bc 33 97 98 bd ba e7 b0 bd
       -0.20540756 -0.02315182 -0.07450714 -0.08637948
000330 9f e1 58 bb 1b 2d 7a bd 95 0e 61 be c8 89 19 bc
       -0.0033093465 -0.061078172 -0.21978219 -0.0093712285
000340 28 b4 1a bd 7d 81 43 3d 80 c4 2a be 07 30 1b 3d
       -0.037769467 0.04773091 -0.16676521 0.0378876
000350 64 6c ee bb 88 da ec 3d 44 63 c6 bd e1 36 0b 3d
       -0.0072761048 0.11565119 -0.09686902 0.033987883
000360 7d 30 66 be ea 9d 50 be b4 37 db bd 2c de 0c bc
       -0.22479434 -0.2037274 -0.10703984 -0.008597892
000370 5c c7 8c be ce 9a 4f be 85 52 95 be 9e 13 a7 bb
       -0.2749585 -0.20273897 -0.2916452 -0.005098774
000380 25 98 bb bc 45 f4 e4 be 82 e2 27 be 81 bf 87 be
       -0.022899697 -0.44717613 -0.16395 -0.26513293
000390 6b d0 ad bd 75 d5 e1 3d 66 ed 60 be 08 69 a9 bd
       -0.08487018 0.11027042 -0.2196556 -0.08271986
0003a0 0e ba c1 bd a3 23 e9 3d a2 4b 31 be 73 ba 23 3d
       -0.09459315 0.1138375 -0.17314008 0.039972734
0003b0 37 62 9e 3a a4 77 59 be 57 48 a0 be 3c 07 f3 bd
       0.0012083714 -0.21237046 -0.3130519 -0.11866614
0003c0 8e 8c a3 be 17 5d a4 be e1 c8 f8 bb 69 06 82 be
       -0.31943172 -0.32102272 -0.007592306 -0.25395516
0003d0 6e aa 30 be d4 1b 06 be 66 97 5e bd b8 b5 59 be
       -0.17252514 -0.13096553 -0.054343604 -0.21260726
0003e0 37 7a b5 be 9d cf 07 3e ef 70 63 be f4 6b 1b be
       -0.35444805 0.13262792 -0.2221105 -0.151779
0003f0 75 2c ee bc a5 1d e2 be d4 3f 8c be 4c f2 19 be
       -0.029073933 -0.44163242 -0.27392447 -0.15033835

fc2.weight f4 [128, 260]
000000 12 2a a9 bd 25 11 6a bc 7e 2f fd 3d da 8e 91 bc
       -0.082599774 -0.014286314 0.12362574 -0.017768312
000010 83 94 d1 be 6e 59 be 3c 02 d1 0b be 02 5b 8f 3d
       -0.40933618 0.023236003 -0.13653949 0.0699978
000020 92 90 55 3d c4 af d2 bd c6 a6 33 3e e8 ca 5c 3e
       0.052139826 -0.10287431 0.17544088 0.21561778
000030 2c bd 8d 3d a3 12 b6 3d db de 0e 3e cf ca 88 be
       0.06920847 0.088902734 0.139522 -0.2671723
000040 a8 98 cd bc 6c 89 31 bd 34 f7 2d 3e 9d 00 09 3e
       -0.025097206 -0.043343946 0.16988832 0.1337914
000050 00 e4 c6 bd 91 24 0d 3e c2 51 86 bd 4a 39 b6 bd
       -0.09711456 0.1378348 -0.06558563 -0.08897646
000060 63 ca 08 be 4d a9 89 bd e3 b3 29 3e 72 af 8f 3d
       -0.13358454 -0.06721745 0.16572528 0.070158854
000070 a9 1b b4 bd bc 0b df bb 0a 52 1a be ab f3 fb 3b
       -0.08794338 -0.006806819 -0.15070358 0.0076889596
000080 42 c7 4d bd aa 59 b5 bd 06 0c c0 3d cb ed 0f bd
       -0.050238855 -0.08854993 0.09377293 -0.035138886
000090 22 7c ec 3d 99 45 fd 38 37 f1 5c 3b 49 7e 8c bd
       0.11547114 0.00012076944 0.0033713111 -0.068600245
0000a0 56 b2 9c bd 2d 37 ed bd 97 bc c1 bc 9c fe 1d 3d
       -0.076512024 -0.115827896 -0.023649497 0.038572893
0000b0 c9 b4 45 be bb 43 8f bd bc 23 cf 3b 7f a8 e4 bd
       -0.19307245 -0.069953404 0.0063213985 -0.111649506
0000c0 74 1b b5 bd be 07 e4 bc a8 b7 f2 bd a7 cb 23 bd
       -0.08843127 -0.027835723 -0.11851436 -0.03998914
0000d0 72 c5 96 bd 2a dd 9e be 98 bf 3d bd 2d e4 0f be
       -0.073618785 -0.3102811 -0.046325296 -0.14051886
0000e0 fd 5b 99 3e ed 9e bd 3d ea 44 4e bd 2d 51 12 be
       0.29952994 0.09258828 -0.05035869 -0.14288779
0000f0 fe 13 30 bd 83 06 88 bd e5 5a 43 3d 11 1d 19 3e
       -0.042987816 -0.06641867 0.047694106 0.14952494
000100 cc c6 22 be 84 30 af 3c 70 fe dc 3d 50 ae 61 bc
       -0.15896147 0.021385439 0.107907176 -0.0137744695
000110 a3 d3 0c be 4a 17 19 bd 05 70 6c bc 0f 48 0a be
       -0.13752608 -0.037375726 -0.014431004 -0.1350405
000120 0f f4 a0 3d 72 ce 18 3e a5 31 a7 bc 26 1c a6 3c
       0.078590505 0.14922503 -0.020409415 0.020277094
000130 4c 1a 00 3d f1 e2 e0 bb 64 2b a9 be 3c 5f 9a be
       0.03127508 -0.006862991 -0.33040917 -0.30150783
000140 fd 58 f6 bd 24 07 f7 3d 18 b9 88 3d 9d 51 51 be
       -0.12028692 0.12061909 0.06675929 -0.20441289
000150 97 e2 00 be bf 5f e6 bc 09 81 81 bc b6 05 03 be
       -0.12586437 -0.028121827 -0.0158086 -0.12795147
000160 7d b2 7c 3b cb 9c df 3d 9b d3 5f 3d e7 a9 c5 38
       0.0038558536 0.10918578 0.054645162 9.425339e-05
000170 fd e8 35 be cc ed 1a be 2d a7 15 be c1 17 20 be
       -0.17764659 -0.15129775 -0.14614554 -0.15634061
000180 40 49 34 3e dd 27 73 bd 18 8a da 3d a9 ed 57 3d
       0.17606068 -0.05936419 0.106708705 0.052716885
000190 84 19 f9 bd 96 f9 be bc 00 e0 60 be 8d a4 22 3d
       -0.1216307 -0.023312371 -0.21960449 0.03970771
0001a0 8f 7c fc 3d 2c b3 98 3d a0 b4 db bd c7 e1 ae be
       0.12328445 0.07456049 -0.10727811 -0.3415663
0001b0 0a a6 86 3c fb d9 0a be d4 82 f4 ba de 6c 36 be
       0.016436595 -0.13559715 -0.0018654712 -0.17814967
0001c0 c9 9e 6d bd c0 ef 2a be 60 8a 99 bc f4 d9 06 bd
       -0.058012757 -0.1669302 -0.01874274 -0.0329227
0001d0 7b ec 98 3d de d5 37 be e6 d6 00 be 45 56 32 be
       0.0746698 -0.17952678 -0.12581977 -0.17415722
0001e0 7a 89 27 bc 66 03 d9 3d b7 fd 62 3d 57 31 2f 3e
       -0.010225648 0.10596351 0.055417743 0.17108665
0001f0 ad 0e 61 be 81 d4 d8 bd ec 8f 2b 3e 20 0a ed be
       -0.21978255 -0.10587407 0.1675412 -0.46296787
000200 b5 b2 f7 bd c0 7b ae bd 73 03 9d bc b3 43 08 bd
       -0.120946325 -0.08519697 -0.019166684 -0.033267688
000210 bb f1 4b 3e 35 35 20 bd 93 76 5b be 93 0c 37 3e
       0.19916432 -0.039113242 -0.21431951 0.1787589
000220 1e 18 a8 bd 81 71 92 3d c7 98 a0 bd c9 3c 43 bc
       -0.08207725 0.071505554 -0.0784164 -0.011916348
000230 ed 56 d4 3d 07 f9 30 3e 4c 14 53 3d ed 96 3a bd
       0.10368142 0.17282496 0.05153303 -0.04555409
000240 b0 07 74 bc 85 11 3e 3d 21 ba 7f bc 84 68 cd 3c
       -0.014894411 0.046403427 -0.015608341 0.025074251
000250 4e e3 d4 3b f6 d0 07 be 12 c7 9e 3c 1c cf 0a bd
       0.0064968234 -0.13263306 0.019382033 -0.03388892
000260 75 ec 9f 3d c8 a8 14 3e 7b c2 71 be a1 78 da 3c
       0.078087725 0.1451751 -0.23609345 0.026668848
000270 16 dc cf 3d 5e 3d de bb 05 6f e1 bd cf 54 ee 3c
       0.101494 -0.006782218 -0.110075034 0.029093174
000280 d9 97 d2 3d cc b3 13 bd 62 a1 22 3e ae ad 92 bd
       0.10282869 -0.03606014 0.15881875 -0.07162033
000290 b3 96 ac 3a 26 03 07 3e 60 3b 20 be 88 e6 87 3b
       0.001316747 0.13184795 -0.1564765 0.0041473545
0002a0 96 0c 05 3d e5 0d bf 3d cd fd a9 3d 5c 49 d4 bd
       0.032482706 0.09328822 0.08300362 -0.10365555
0002b0 c1 ba 27 be 79 c5 09 3e 46 35 29 3d b7 ae f6 bc
       -0.16379835 0.13454236 0.04131057 -0.030112607
0002c0 5e fc 4e be 7e bf 14 be dd ae 12 be 51 1e dd bd
       -0.20213458 -0.14526173 -0.14324518 -0.10796798
0002d0 fa e7 a1 3e 66 5e e4 3c 5e 51 72 bc 73 29 f9 3d
       0.31622297 0.027877044 -0.014789907 0.12166109
0002e0 b4 83 9e 3d f9 63 cd bd 14 89 fe bd e8 c2 41 3d
       0.07739964 -0.10028834 -0.12428489 0.047305018
0002f0 8b 65 4c be f3 7d e9 be de 55 22 be ca 3d 88 3c
       -0.1996061 -0.45603904 -0.15853068 0.016631026
000300 c5 f8 25 3e 9f cb 91 bd ff 93 d0 bd 4f 2e 39 3e
       0.1620818 -0.07118916 -0.10184478 0.18084072
000310 e2 87 9a bd 21 1f a5 3c 46 d1 da 3c 03 26 f0 bc
       -0.07545449 0.020156445 0.026711117 -0.029315
000320 55 45 55 3d e7 f7 69 3d 68 bd ca 3b a9 cf c8 3d
       0.052068073 0.057121184 0.0061871298 0.09805233
000330 25 49 ae be a8 3a 16 be 67 ab 14 3e 03 b3 c1 bd
       -0.3404018 -0.14670813 0.1451851 -0.09457972
000340 00 cd 8a bc f3 58 5d bc 50 89 45 3c 26 4d e0 bd
       -0.016943455 -0.013509977 0.012056664 -0.10952215
000350 38 83 bb 3d d7 7f 07 3e 97 94 14 be 88 ab 39 3c
       0.09155887 0.13232361 -0.14509808 0.0113324
000360 13 7c 8a bc 9f 29 dc 3d bc 91 5e bc b1 21 a3 bd
       -0.016904866 0.10750126 -0.0135845505 -0.079654105
000370 73 a2 87 bd 56 39 a0 bb 52 32 e3 bd 80 bd d2 bc
       -0.066227816 -0.0048896475 -0.11093582 -0.025725126
000380 ce f7 8b bd 24 98 a6 3d 6d ff 87 3b 4b 10 44 3e
       -0.06834374 0.08134487 0.004150322 0.1914684
000390 7d 8d 6c 3d 3b 22 44 3e 37 15 43 3d 4c 18 5d bd
       0.05775212 0.19153683 0.047627654 -0.05397825
0003a0 7d 84 7f bd 8b b7 50 bc 06 8b f9 bc c8 a0 8c 3d
       -0.06238221 -0.012739073 -0.0304618 0.06866604
0003b0 c7 5b 18 3e 9a 12 a7 3e ec e6 3b 3d 02 5b 1c bd
       0.1487876 0.3263138 0.04587452 -0.03817273
0003c0 a0 45 ba 3d 99 93 7a 3d bc fc 63 bc 34 7e 0a 3e
       0.09095311 0.061175916 -0.013915237 0.13524705
0003d0 a5 9b 07 3e 2d b8 de 3d ba f3 8f 3c 9a 9b 8a bc
       0.13242967 0.108749725 0.017572273 -0.0169199
0003e0 7b 65 8b bd 4f ce 63 be b5 b2 73 3d 8b dd 45 bc
       -0.06806465 -0.22246669 0.0594966 -0.012076746
0003f0 84 de 10 3e 87 16 5b 3d 87 8b 93 bd 77 79 07 be
       0.14147383 0.05348828 -0.07204347 -0.13229929

fc2.bias f4 [128]
000000 e6 58 5d 3e 07 f8 7c 3c 61 99 8c be 65 9e 0d bd
       0.21615943 0.015439994 -0.2746077 -0.034574885
000010 cc 59 ae bd 18 1c e3 3e 5d 36 7e 3e 40 be 32 3d
       -0.08513221 0.4435737 0.24825425 0.043638468
000020 83 f3 ff bc 08 7d 9f be 71 5d 6d 3e 83 d4 3d 3e
       -0.031244045 -0.3115008 0.23180176 0.18538098
000030 ff 6c 8c 3e ef 5f 94 3c fb 84 6f bd c1 83 8c 3e
       0.27426907 0.018112151 -0.05847643 0.2744427
000040 85 c4 f2 bd 34 4d 83 3d cd 0f ba 3e 03 79 12 bd
       -0.118538894 0.0641121 0.3634018 -0.035759937
000050 d4 b7 c0 3e da 6e 7b 3e ae a3 8a be b3 61 c9 bd
       0.3764025 0.24554005 -0.27078003 -0.09833088
000060 86 62 b8 3d 43 7d e1 3d 02 8e 23 3e 47 bc a1 3d
       0.09003167 0.1101022 0.1597214 0.07897239
000070 30 40 57 3e 23 e2 7e 3e 87 18 72 3e 90 4a 71 3d
       0.2102058 0.24890952 0.23642169 0.058909
000080 0a f7 49 bd 7c cc bf 3e 38 cf 5c 3d bd f8 48 3e
       -0.04930786 0.37460697 0.053908557 0.19626136
000090 f1 f8 8e 3d f1 a1 5d bd 2c 5e 0f be 71 ea 8b bd
       0.069810756 -0.054109517 -0.14000767 -0.068318255
0000a0 73 c4 40 3e fe a5 80 3e 59 62 3b be c9 c7 5b be
       0.1882494 0.25126642 -0.18299235 -0.2146293
0000b0 3d 6f 62 be d7 c1 10 3e 30 25 29 be a5 da 15 be
       -0.22112747 0.14136444 -0.16518092 -0.14634188
0000c0 ba e5 75 3e da f9 49 3e 37 91 20 3d 8e 97 89 bd
       0.24013415 0.19724217 0.039200988 -0.0671836
0000d0 fa 4b b6 3e 84 f5 41 3e 3a 0c 0e bd d8 59 1b 3e
       0.3560484 0.18941313 -0.03467963 0.15170991
0000e0 62 26 c2 bc 23 9d 01 be 7c a7 5e bd 3a e4 85 3d
       -0.023699943 -0.12657599 -0.054358944 0.065376714
0000f0 ff 53 6e 3e 45 41 53 be 90 93 15 be b8 76 38 3e
       0.2327423 -0.20630367 -0.14607072 0.18014038
000100 a0 30 92 bd 3c 6e 75 bb c2 99 48 be 7f 6d b4 be
       -0.07138181 -0.0037449738 -0.19589904 -0.3523979
000110 80 ca d7 bd f5 76 2f be 35 98 74 bc 01 ab a7 3e
       -0.10536671 -0.17135222 -0.014928867 0.32747653
000120 12 32 ea bd 85 86 d7 3e 3e d9 cb 3e 1f 4d 36 3e
       -0.114353314 0.42094818 0.3981418 0.17802857
000130 60 68 c6 3d 56 0a 00 3e de da 5d 3e d3 29 4c bd
       0.09687877 0.12503943 0.21665522 -0.049844574
000140 56 ea 85 3e 12 7e e5 3d 1d 74 6c 3e bb 10 15 be
       0.26155347 0.11205687 0.23091169 -0.14557163
000150 b4 1b 9b 3e 0a b3 d9 3b a7 4a 67 3e d5 93 4e 3d
       0.30294573 0.0066436576 0.22587071 0.050433952
000160 a4 7e cd 3e 4d e2 16 be 3d 2c ad 3e a0 ef 3c be
       0.40135682 -0.14734764 0.33822814 -0.18450785
000170 6a 31 10 be 88 12 0b be 52 ef 28 3e 2b de 8e 3e
       -0.1408135 -0.13581288 0.16497543 0.27903876
000180 b5 c9 15 3e a5 57 c9 bd e9 7c 55 3e ef c5 9f 3e
       0.14627726 -0.0983117 0.2084843 0.312057
000190 a9 1e 16 bc b3 c0 91 3e ce 24 20 be f4 58 58 be
       -0.009162583 0.2846733 -0.1563904 -0.21127683
0001a0 ff 35 77 bd 3d f1 59 be c7 9a e9 bd f8 1d d8 3d
       -0.06035423 -0.21283431 -0.114064746 0.10552591
0001b0 22 4a 64 3d 12 66 80 3e 0e dd 95 bd 90 8e 8a 3e
       0.05573476 0.25077873 -0.073175535 0.27061892
0001c0 4d bc 69 bd 47 f4 8c 3e 9f 9e 3c 3e af c3 83 3e
       -0.057064343 0.2753012 0.18419884 0.25735232
0001d0 9f 19 da 3e 4a 7b 9e bd a5 7c ab bd 46 4e 8b 3e
       0.42597672 -0.07738359 -0.083733834 0.27208155
0001e0 a2 41 51 be 66 41 0c bd 60 d2 22 bd b3 75 2d 3d
       -0.20435193 -0.034242056 -0.03975141 0.042348575
0001f0 97 84 e4 3d c9 9a b1 3e 1c 1e 92 bd 98 77 0b bc
       0.11158102 0.34688404 -0.07134649 -0.0085124

fc3.weight f4 [1, 128]
000000 f7 05 e3 3d e3 ec 61 be a9 78 ad bd 23 ca 20 be
       0.11085122 -0.22063021 -0.0847028 -0.15702109
000010 ed 1d 45 be e5 0b c6 3d ea 9b cb 3d af d1 1e be
       -0.19249697 0.096702375 0.099418476 -0.15509675
000020 d0 f2 c4 3e ca 58 94 bd 09 4c aa 3d 43 78 fd 3d
       0.384665 -0.07243498 0.08315284 0.12376454
000030 65 d6 fb 3d 3b 84 8c 3e f5 0d b1 bd f6 99 12 3e
       0.12296752 0.27444634 -0.0864524 0.14316544
000040 ee cf df bd ef 16 fe 3d 5a 36 b3 3d ad 85 22 be
       -0.10928331 0.12406718 0.08750601 -0.15871306
000050 4e 49 e5 3d 50 e3 b3 3d c7 28 0c be 34 b4 bf bd
       0.111956224 0.08783591 -0.1368743 -0.09360543
000060 b9 61 d1 3d 6b b5 04 3e 54 f6 fa 3d 80 94 a0 3e
       0.10223717 0.1295983 0.122540146 0.31363297
000070 17 78 ad 3d 79 42 15 3e f7 ba f7 3d be ac 37 3e
       0.08470171 0.14576139 0.120962076 0.1793699
000080 6d 5e dc bd f2 53 e1 3d 78 b4 42 3e 13 d2 d7 3d
       -0.10760198 0.110023394 0.19014156 0.10538115
000090 3e a5 89 be b5 82 9b bd 17 ee c5 bd a6 a2 fe bd
       -0.26883882 -0.0759329 -0.09664553 -0.124333665
0000a0 ff 9a 8d 3d 09 e2 b8 3d 5a e1 da bd bc b3 9f bd
       0.06914329 0.09027488 -0.10687514 -0.077979535
0000b0 a4 6f ba bd b0 ee e3 3d 70 8a c3 bd 28 76 ce bd
       -0.09103325 0.111295104 -0.09547889 -0.1008113
0000c0 6a 02 ae 3d 17 db f8 3d d9 ca 0f be 43 59 12 be
       0.08496554 0.12151163 -0.14042224 -0.14291863
0000d0 61 28 bc 3d 77 95 0b 3e 39 8d f4 bd c4 ed 18 3e
       0.09187389 0.13631235 -0.119409986 0.1493445
0000e0 a8 95 9f 3e 23 c3 02 be 7a 2d 75 3e 55 98 11 3e
       0.31168866 -0.12769751 0.23943129 0.14218266
0000f0 a4 e3 0d 3e 20 76 c8 bd f7 d7 b7 bd 3a ff 0c 3e
       0.1385637 -0.097881556 -0.08976739 0.13769236
000100 02 ad 18 be 33 30 a5 3e 16 07 d4 bd 01 35 a2 bd
       -0.14909747 0.32263336 -0.10352914 -0.07920266
000110 cb e8 f0 bd ba 7e 9a bd b9 f9 c6 3e e5 11 bc 3d
       -0.11763152 -0.075437024 0.38862398 0.091831006
000120 40 e9 b9 bd c0 b3 0e 3e 54 f6 10 3e cd 6c ae 3d
       -0.09077692 0.13935757 0.14156467 0.08516846
000130 0f 84 14 3e 79 37 ee 3d b9 02 81 3d 45 11 c1 bd
       0.14503501 0.11631674 0.062993474 -0.09427122
000140 f8 72 86 3d 9a f0 d2 3d 4b 60 12 3e b8 c5 e5 bd
       0.06564897 0.10299797 0.14294545 -0.112193525
000150 6a ac dd 3d b3 ba 65 3e 44 b4 dc 3d ec fc 97 3e
       0.10823901 0.22434501 0.107765704 0.29685152
000160 3a d5 fa 3d b3 ea 0b be a6 2a ee 3d ca 3d dc bd
       0.12247701 -0.1366375 0.11629228 -0.10753973
000170 eb 3a 8f bd 9a 71 fe bd fb 9c 1c 3e ab 32 4a 3e
       -0.069936596 -0.124240115 0.15294258 0.19745891
000180 2c 0e 15 3e 96 66 dd bd 88 64 b6 3d ee e2 e7 3d
       0.14556187 -0.10810582 0.089058936 0.1132258
000190 c8 0d 4f be 42 cc a3 3d 89 b1 ee bd 23 41 4d be
       -0.20220101 0.079979435 -0.11654956 -0.20044379
0001a0 f1 24 20 be d2 21 a8 bd 64 f6 dc bd 7f 9b eb 3d
       -0.15639092 -0.08209576 -0.10789183 0.11504268
0001b0 7a a1 bc bd e9 e0 fb 3d ea 79 2a be b9 20 9a 3d
       -0.09210487 0.122987576 -0.16648069 0.075257726
0001c0 8b 75 66 3e 42 e2 f0 3d 31 14 1e 3e fb d2 b3 3d
       0.22505777 0.11761905 0.1543739 0.08780476
0001d0 cf 6c f5 3d 35 e4 db bd 59 74 bb bd 12 a7 f0 3d
       0.11983644 -0.107368864 -0.09153051 0.11750616
0001e0 0a 33 e5 bd e5 95 ba bd 93 2b 0f be 54 6c 54 3e
       -0.111913756 -0.09110621 -0.13981466 0.20744449
0001f0 5c 05 c0 3d ec 85 0c 3e 4b e4 7a bd 21 ab b6 be
       0.09376022 0.13722962 -0.061252873 -0.35677436
